Projects/Crohn_project/Model/flared_learning_model.pt (torch_old, 6312 bytes, 4 tensors)

linears.0.weight f4 [5, 15]
0.032473873 -0.07903957 0.03898706 -0.2629249 -0.08834941 -0.03670873 -0.17491631 -0.03622517
-0.14374663 -0.02030781 -0.028682517 0.29666382 0.1206018 -0.022984346 -0.2893165 0.099777624
0.07710915 0.2652109 -0.25837559 -0.0880057 -0.1961747 -0.21174653 -0.14482796 -0.15857503
-0.0459269 0.22881587 0.13371447 -0.29689297 -0.14387296 -0.13127178 0.04643374 0.020270152
0.23745994 -0.2438089 -0.20861383 0.07744014 -0.10432897 -0.028195193 0.09655039 0.060452472
0.29448614 -0.028502975 -0.21465564 0.23427129 0.16359654 0.11890486 -0.37248513 -0.075749464
-0.32496554 -0.3632585 -0.2839098 0.09111498 -0.089449205 0.11187281 -0.0012196796 0.25248986
0.4529926 0.11200926 0.0481703 -0.23884316 -0.20847532 -0.049454372 0.09687326 -0.13567807
-0.26842257 -0.0519856 -0.035021357 0.03905626 0.1631701 -0.23452415 0.036318798 -0.17619893
0.12665652 -0.20554994 0.076376475
00000000: 5303 053d 80df a1bd e5b0 1f3d 189e 86be
00000010: 89f0 b4bd e55b 16bd 431d 33be d860 14bd
00000020: 5132 13be 905c a6bc 99f7 eabc 52e4 973e
00000030: 14fe f63d ab49 bcbc 4b21 94be 3658 cc3d
00000040: 67eb 9d3d b9c9 873e ce49 84be 553c b4bd
00000050: 05e2 48be 15d4 58be c84d 14be 7e61 22be
00000060: d81d 3cbd b54e 6a3e 72ec 083e 5b02 98be
00000070: 6f53 13be 1c6c 06be 4e31 3e3d 970d a63c
00000080: b328 733e 0aa9 79be dd9e 55be f098 9e3d
00000090: 6daa d5bd 9bf9 e6bc 36bc c53d 039d 773d
000000a0: e3c6 963e 127f e9bc b0ce 5bbe d0e4 6f3e
000000b0: da85 273e 6484 f33d 5fb6 bebe 8922 9bbd
000000c0: e261 a6be 05fd b9be a05c 91be 7e9a ba3d
000000d0: 2531 b7bd 921d e53d a8dd 9fba 5a46 813e
000000e0: a5ee e73e 1c65 e53d 384e 453d 4d93 74be
000000f0: 8e7a 55be ab90 4abd 7d65 c63d 31ef 0abe
00000100: af6e 89be daee 54bd 8e72 0fbd 75f9 1f3d
00000110: 1016 273e 1927 70be 05c3 143d 7e6d 34be
00000120: 3fb2 013e af7b 52be 456b 9c3d

linears.0.bias f4 [5]
0.12854843 -0.086325765 0.21943976 -0.10095098 -0.05323238
00000000: 33a2 033e 90cb b0bd d1b4 603e 63bf cebd
00000010: 320a 5abd

out.weight f4 [2, 5]
0.15518147 0.30934584 -0.21266896 -0.07332176 0.32230803 -0.36810878 0.034236383 -0.41269466
-0.46595585 0.25893024
00000000: e4e7 1e3e 9462 9e3e e4c5 59be b829 96bd
00000010: 8f05 a53e c178 bcbe 733b 0c3d b74c d3be
00000020: c491 eebe 8192 843e

out.bias f4 [2]
-0.18532605 -0.13597919
00000000: 1dc6 3dbe 213e 0bbe
