Projects/Crohn_project/Model/flared_learning_model.pt (torch_old, 6173 bytes, 4 tensors)

linears.0.weight f4 [10, 15]
00000000: d0e8 3b3e a14c 103e fed2 303d 1353 56be
00000010: 117f 4ebe 99f4 2bbd e618 f73c 7b28 163d
00000020: fb43 cb3d 405b 853a dcfe e83d 0185 513d
00000030: 903b a2bd 7025 353e 5ab5 233d 5028 15bf
00000040: 43b5 483f 3216 0a3e 1682 9b3e cc08 163e
00000050: ef61 e53d 0349 9cbd 20ff 8b3d a6e4 063f
00000060: f63b 5ebe 1c9f 83be 9f8c e0bd acaa adbe
00000070: 082f acbe bd39 093d 2c52 2d3f 6779 1ebf
00000080: 8056 bf3d 58b8 63be c4b5 94be 482f eb3d
00000090: 1192 1e3e df0c a13c 54ca d3be d722 803d
000000a0: d118 9d3e 1b02 2fbe 7bc5 3ebd fb67 1b3f
000000b0: 0ad2 be3d 14e6 973e 76e6 d4be 3eae d6bd
000000c0: c7f8 f3bd 333c e7be e7e6 0b3e c88b ebbd
000000d0: 5057 9fbd 5f2f 6cbe a04c 6dbc ea71 c73d
000000e0: 1995 a13d d3b2 f7bd 77b7 11bd dd67 94bd
000000f0: c866 983d cf26 3ebe a424 8cbd 166d 22be
00000100: 3f0f 003e 9999 2c3d 7ea7 31be 03b4 c03d
00000110: f4c7 32be 019d 26be 79d6 c6bd 670a c7bd
00000120: 4ecb 96bc 531c 7d3e 5190 3abe 1000 423f
00000130: 6770 1bbf bcf8 21be 82ff 1cbf e6ee dcbe
00000140: 31d5 acbe 2b2b b53e f386 613e 741b 73bf
00000150: 6d2d 363e d181 183f cf96 483e 721c b63e
00000160: ee67 053f 0528 353e fa4d 303f 1003 e5be
00000170: e1b8 5abe 3810 b8be 3773 8abe f641 28be
00000180: b09e 3a3e 596d 943e b293 18bf 499f bebd
00000190: df6d c9bd 6907 463d ca0e ba3d 5025 903e
000001a0: 8f5b 923e 3c82 84be 8e14 233e 828a a7bd
000001b0: 32d4 913d 3579 39bb 2320 f7bc 77f0 0c3d
000001c0: a063 f73d 2ef0 e0bd 593d 503d 0322 90be
000001d0: 9c6a da3d e85d e4bd 51e7 62be 2706 8abe
000001e0: 37ca 25be 83c7 5d3e 4041 473e 1692 0bbe
000001f0: 97ba c3bd 7bbf bcbd 9f4f 9ebd 2ab7 32be
00000200: 3331 233e 7768 a5bd 8489 f9bd 9d4d 6e3d
00000210: ebb2 5f3e fdbc 3d3e 626e 323e 67d7 ca3e
00000220: 8789 1cbf c24c 503c aa87 82be 0998 73be
00000230: 8194 32bd 2a6e 353e 5089 f8bd 71ab 05be
00000240: 129a b33d 9305 8a3d 334f d33d 0b6a 2ebe
00000250: 8482 5d3d 0a7a 89ba
0.1835053 0.14091732 0.043169968 -0.20930128 -0.2016566 -0.041981313 0.03016324 0.0366597
0.099250756 0.0010174289 0.113767356 0.051152233 -0.07921517 0.17690063 0.039967872 -0.58264637
0.78401583 0.1348503 0.30372685 0.14651793 0.1120032 -0.076311134 0.068357706 0.5269264
-0.21702561 -0.25707328 -0.10964321 -0.33919275 -0.33629632 0.03350233 0.6770351 -0.61903995
0.093426704 -0.2223829 -0.29044926 0.114836276 0.15485407 0.019659458 -0.41365302 0.06256645
0.30682996 -0.17090647 -0.04657505 0.60705537 0.093174055 0.29667723 -0.41582078 -0.10482453
-0.11912685 -0.45163116 0.13662301 -0.115012705 -0.077803254 -0.23064946 -0.014483601 0.09738524
0.07889766 -0.12094655 -0.035575356 -0.07246373 0.07441479 -0.18569492 -0.06842926 -0.15861925
0.12505816 0.04213867 -0.1734905 0.094093345 -0.17459089 -0.1627083 -0.09708876 -0.09718781
-0.01840749 0.24717836 -0.18219115 0.75781345 -0.6071839 -0.15817541 -0.61327374 -0.43151015
-0.33756402 0.35384497 0.22024135 -0.94963765 0.17790766 0.59573084 0.19588779 0.35568577
0.5211171 0.17691047 0.6886898 -0.447289 -0.21359588 -0.35949874 -0.27041027 -0.16431412
0.18224597 0.28989676 -0.59600365 -0.09307725 -0.098354094 0.04834691 0.09084852 0.28153467
0.2858548 -0.2588061 0.1592581 -0.08180715 0.07120551 -0.0028301005 -0.030166691 0.034409013
0.12079549 -0.10983311 0.050839756 -0.2815095 0.106648654 -0.11150724 -0.22158553 -0.2695782
-0.1619042 0.21658139 0.19458485 -0.13629946 -0.095570736 -0.092162095 -0.0773003 -0.17452684
0.15936737 -0.08076566 -0.12184432 0.058179487 0.21845596 0.18529125 0.1742492 0.39617464
-0.6114735 0.012713613 -0.25494128 -0.23788466 -0.043598656 0.17717806 -0.12135565 -0.13053681
0.08769621 0.067393444 0.103178404 -0.1703264 0.054079548 -0.0010488641

linears.0.bias f4 [10]
00000000: 196c cbbb 18aa 323e 8fcc 943c 2aa3 0cbe
00000010: 3823 78bd d928 c73d 825f 08bd 0fdd efbd
00000020: 4594 44be d8ff 5e3c
-0.0062079546 0.17447698 0.018163947 -0.13734117 -0.060580462 0.09724588 -0.03329421 -0.117120855
-0.19197185 0.013610803

out.weight f4 [2, 10]
00000000: 5720 213e 61f4 dabe 3075 213f 1f83 8c3e
00000010: 7bb4 19be ff43 053f 302a ed3e 5633 0abe
00000020: 10ec 5f3d 5c42 ef3e 2f3d 483b 5062 9f3e
00000030: 06d6 10bf 522f 1dbe 591d b1be df54 09bf
00000040: 3f05 93be 84af 413e 1ca9 493e cfcd 28be
0.15734993 -0.4276457 0.6306944 0.27443787 -0.15010254 0.5205688 0.4632125 -0.13496146
0.054668486 0.46730316 0.0030554046 0.31129694 -0.56576574 -0.15350083 -0.34592703 -0.5364513
-0.2871494 0.1891461 0.19693416 -0.1648476

out.bias f4 [2]
00000000: 1132 60be bc72 a8be
-0.21894099 -0.32900035
