Projects/Crohn_project/Model/flared_learning_model.pt (torch_old, 4729 bytes, 4 tensors)

linears.0.weight f4 [10, 15]
0	0x3ed2f194	0.41199934
1	0x3eb0e333	0.3454834
2	0xbdfd88f9	-0.12379641
3	0x3ec9a032	0.39380032
4	0xbe1c0b01	-0.15238573
5	0x3e8f49eb	0.27986082
6	0x3ea079fb	0.31343064
7	0x3ea41b1b	0.3205193
8	0xbe224611	-0.1584704
9	0x3e1ae182	0.15125087
10	0x3dc6ea4f	0.097126596
11	0x3dd76f4b	0.10519274
12	0x3e9ef0a4	0.3104297
13	0x3f2fa07d	0.6860426
14	0x3c509c91	0.012732641
15	0x3e630b54	0.2217229
16	0x3dfdd1c0	0.12393522
17	0xbe8811b0	-0.26575994
18	0x3ee2bb22	0.44283396
19	0x3e946f72	0.28991276
20	0x3f15c8f9	0.58509785
21	0x3e7a7885	0.24460037
22	0x3e56fe21	0.2099538
23	0xbe9c799c	-0.3056153
24	0x3e8c8553	0.27445468
25	0xbe300921	-0.17190982
26	0x3d3608e6	0.04444208
27	0x3f1847ba	0.59484446
28	0x3eba405f	0.36377236
29	0xbe3b5a37	-0.18296133
30	0x3ed56e45	0.4168569
31	0x3e4164c7	0.188861
32	0xbe5ed0af	-0.21759294
33	0x3eaf7296	0.3426711
34	0xbe43fd8e	-0.19139692
35	0x3ef966c2	0.4871121
36	0x3ef9c92c	0.48786294
37	0x3ed77513	0.42081508
38	0xbf0d50a6	-0.55201185
39	0xbdd96ee6	-0.10616855
40	0xbe77e207	-0.24207316
41	0x3e35085f	0.17678975
42	0x3eb49eec	0.35277498
43	0x3f1889a5	0.5958503
44	0xbe1e6560	-0.15468359
45	0x3d252105	0.040314693
46	0x3eda6ae6	0.42659682
47	0xbdc20b82	-0.09474851
48	0x3ea279f6	0.31733674
49	0x3e93c763	0.28863057
50	0x3ee11b25	0.43966022
51	0x3e2bbdc7	0.16771613
52	0x3ecfa1db	0.40553173
53	0xbe1404f9	-0.14455022
54	0x3ea733e1	0.32656768
55	0xbd917be4	-0.071037084
56	0x3d172365	0.03689899
57	0x3e54d448	0.20784104
58	0x3ea62688	0.32451272
59	0xbebc1830	-0.36737204
60	0x3ec66ef4	0.38756526
61	0x3e6ecdd6	0.23320708
62	0x3dbae386	0.09125428
63	0x3ed1ca43	0.40974626
64	0x3d8ef24b	0.069798075
65	0x3ef001b7	0.46876308
66	0x3e2c063a	0.1679925
67	0x3f1a9d94	0.60396695
68	0xbd62b491	-0.055347983
69	0x3cceab6b	0.025228223
70	0x3e6e3767	0.23263322
71	0x3e5d17dc	0.21591133
72	0x3e83e45b	0.2576016
73	0x3f08d6b7	0.5345263
74	0xbe858a24	-0.26081955
75	0x3e361a79	0.17783536
76	0x3e9fe937	0.31232616
77	0xbe329cf9	-0.17442693
78	0x3e812b94	0.2522856
79	0xbddbe879	-0.107377
80	0x3f3e73c8	0.7439542
81	0x3e8f7043	0.28015336
82	0x3ee88f3c	0.4542178
83	0xbe9f7103	-0.3114091
84	0x3eaa7d25	0.33298603
85	0x3e03d9b5	0.12876017
86	0x3b915278	0.00443488
87	0x3e981031	0.29699853
88	0x3eab63dc	0.33474624
89	0xbe25a904	-0.16177756
90	0xbe72e3b9	-0.23719682
91	0xbf0595d6	-0.52181756
92	0x3dcbff9e	0.099608645
93	0xbdeea69b	-0.11652871
94	0xba868a04	-0.001026452
95	0xbec7b1d4	-0.3900286
96	0xbec0836d	-0.3760027
97	0xbe900113	-0.2812582
98	0x3e193644	0.14962107
99	0xbeaf39e4	-0.34223855
100	0x3ca19b8e	0.019727495
101	0xbd94cb76	-0.072653696
102	0xbf087cff	-0.5331573
103	0xbe4be630	-0.19912028
104	0x3eaa8ee0	0.3331213
105	0x3ea9269a	0.33037263
106	0x3f17e8cc	0.59339595
107	0xbe07956f	-0.13240598
108	0x3dc1bdbc	0.09460017
109	0x3e72dac5	0.23716266
110	0x3f00f037	0.5036654
111	0x3e728cb8	0.23686492
112	0x3f035057	0.51294464
113	0xbec69aca	-0.3878997
114	0xbd59826c	-0.053102896
115	0x3e2ca792	0.16860798
116	0x3dffbaf6	0.12486832
117	0x3e289e00	0.16466522
118	0x3e5ce2c2	0.21570876
119	0xbd522b54	-0.051310852
120	0xbcc13abd	-0.023587579
121	0xbea0ab0d	-0.313805
122	0xbe112ea9	-0.14177956
123	0xbe557577	-0.2084559
124	0x3d2e1363	0.042498957
125	0xbeba98b8	-0.3644464
126	0xbe0f8fee	-0.14019749
127	0xbe6fb4e3	-0.23408847
128	0x3df3711f	0.118868105
129	0x3d6f81f7	0.058473554
130	0x3e913b0e	0.28365368
131	0xbdf5c583	-0.12000563
132	0xbe4c6505	-0.19960411
133	0xbe5dec7a	-0.2167224
134	0x3e4e7376	0.20161232
135	0xbdff21e7	-0.12457638
136	0xbf074398	-0.52837515
137	0x3d16052c	0.036626026
138	0xbe223d19	-0.1584362
139	0xbdb9ebeb	-0.09078201
140	0xbf095903	-0.53651446
141	0xbeb4e447	-0.35330412
142	0xbf088027	-0.53320545
143	0x3f0d6cba	0.5524403
144	0xbe775cb6	-0.2415646
145	0xbd8755ae	-0.06608139
146	0xbe18d301	-0.14924242
147	0xbe5117c1	-0.20419218
148	0xbf155f30	-0.5834837
149	0x3e7122b7	0.23548399

linears.0.bias f4 [10]
0	0x3cdee27a	0.027207602
1	0x3d2b93d4	0.041889027
2	0xbbb4e10e	-0.0055199927
3	0x3e48f0a9	0.19623055
4	0x3dfbbd00	0.12291908
5	0x3d1bc896	0.03803309
6	0xbdefd5e3	-0.117107175
7	0x3debc21b	0.11511632
8	0xbe01a5b3	-0.12660865
9	0x3c4a4ca0	0.01234737

out.weight f4 [2, 10]
0	0x3e797821	0.24362232
1	0x3f078c9f	0.52948946
2	0x3eb56287	0.35426733
3	0x3e75dc01	0.24009706
4	0x3ef41e53	0.47679386
5	0x3da31989	0.07963855
6	0xbea8060e	-0.3281712
7	0x3c1be558	0.009515129
8	0x3d38b57a	0.045094945
9	0xbe630f4a	-0.22173801
10	0xbf13212b	-0.57472485
11	0xbcbac8aa	-0.022800762
12	0xbf14173c	-0.5784795
13	0xbe2c61e4	-0.16834217
14	0xbea858ec	-0.32880342
15	0xbf18f3b8	-0.59746885
16	0x3ed89ef5	0.42308775
17	0xbed70fe9	-0.42004326
18	0x3e25e004	0.16198736
19	0x3f065661	0.52475554

out.bias f4 [2]
0	0xbdf6b182	-0.12045576
1	0x3d940f82	0.072295204
