Projects/Crohn_project/Model/flared_learning_model.pt (torch_old, 4984 bytes, 4 tensors)

linears.0.weight f4 [10, 15]
000000 61 a1 08 3f 8a 04 db bf c3 45 c6 3f 99 30 26 be
       0.53371245 -1.711076 1.549004 -0.16229476
000010 c5 7b 09 40 d9 e9 04 3f 62 0f a4 3e af 6b 81 3e
       2.1481793 0.51919323 0.32042986 0.2527747
000020 07 4f 8d 3f a0 7e fd 3e 0f aa 56 3f 42 fb e4 3f
       1.1039742 0.4951067 0.8385324 1.7889178
000030 54 b2 4a 3e 71 b8 b3 be fd 33 1c 3f fd 3b ec be
       0.1979459 -0.35101655 0.6101683 -0.46139517
000040 fd 94 59 3f 85 4c 0b bf e8 a7 61 bd 66 02 40 bf
       0.84992963 -0.54413635 -0.05509177 -0.7500366
000050 e8 6c 81 bd 78 c9 63 be 94 92 18 3e 40 50 ae be
       -0.063196 -0.22244823 0.14899665 -0.340456
000060 95 c3 62 be ea d4 ae be 10 00 19 bf 2c 10 59 3d
       -0.22144921 -0.34146816 -0.5976572 0.05299394
000070 91 57 a0 bd 36 1f 22 be 2a c9 4b be 6f 4f 88 3f
       -0.07829202 -0.15832219 -0.19900957 1.0649241
000080 66 d5 89 bf 0e 73 86 3d ba 81 c2 bf 95 d3 54 be
       -1.0768249 0.06564914 -1.519584 -0.20783837
000090 c6 23 9b be e9 2c d0 3c 78 e1 26 bf f0 8b 08 bf
       -0.3030073 0.02541204 -0.6518779 -0.5333853
0000a0 58 10 f4 be 95 bc 9b bf 27 be 23 3d 7b 37 82 3e
       -0.4766872 -1.2166926 0.039976265 0.25432953
0000b0 22 71 00 bf ec ea 1e 3d 96 69 87 be d3 0c c6 bd
       -0.50172627 0.038798258 -0.26447743 -0.09670415
0000c0 32 fc 2e 3d 92 0d 3a 3d c2 ab 3f be cc 3e 3e be
       0.04272098 0.045423098 -0.18717864 -0.18578643
0000d0 59 19 ab bd d4 95 82 3e a3 91 42 be 71 21 f8 3d
       -0.08354444 0.25504935 -0.19000868 0.121157534
0000e0 88 30 82 3e 47 49 28 3d 37 32 1f 3e 51 23 1d 3e
       0.2542765 0.041085508 0.15546499 0.15345503
0000f0 31 ee 01 3d 1e 9a 27 bf 4d dc d1 3e a5 ed a0 3d
       0.031721298 -0.6546954 0.4098839 0.07857827
000100 04 a0 88 3f d3 7b 8e 3e 1b 3f 36 3d bb 16 0c be
       1.0673833 0.27828845 0.044493776 -0.13680546
000110 73 cd 8e 3e 13 f3 23 3e ad 6f bb 3e e4 40 50 3f
       0.2789112 0.16010694 0.3660864 0.81349015
000120 87 6d 5f 3e 00 7d 27 3e 26 be b7 3e 1f 11 cf 3e
       0.21819125 0.16356277 0.3588726 0.4044275
000130 38 10 9e bf 42 2b a0 3f a0 3b c9 be 0b b2 f5 3f
       -1.23487 1.2513201 -0.39303303 1.9194959
000140 ad 57 a8 3e 18 75 80 3e b4 36 a3 3d be 9d 06 3f
       0.3287939 0.25089335 0.07969418 0.52584445
000150 30 9b 1f 3f 16 6b ff 3e 29 7a c9 3f e9 6a 2b 3e
       0.6234617 0.49886388 1.5740405 0.16740002
000160 21 48 ed bd 88 17 4f 3e e3 92 70 bf 54 5d 1b 40
       -0.11586023 0.2022382 -0.9397413 2.4275713
000170 ac ac 07 c0 0b 29 16 3f 3b 3c 2b c0 70 ca 47 bf
       -2.119914 0.58656377 -2.6755512 -0.7804327
000180 d5 29 ff be f5 81 47 be cf 37 c9 bf 3a 4d 42 bf
       -0.49836603 -0.19483168 -1.5720156 -0.7589909
000190 c1 02 68 bf f5 b2 2c c0 ab fb 90 be bc c9 c7 3e
       -0.906292 -2.6984227 -0.28317007 0.390211
0001a0 cc 21 01 bf 8c 23 2a be 93 dd 95 3f 76 dc 27 bf
       -0.50442195 -0.16615123 1.1708244 -0.6557077
0001b0 ac bb ec 3d 44 54 81 bf bb 6a b1 be 52 54 cd be
       0.11559233 -1.0103841 -0.3465174 -0.40103394
0001c0 8e e0 ff bd eb d2 2b bf 7a 6f bc be 19 f3 d7 be
       -0.12494002 -0.6711871 -0.368038 -0.42177656
0001d0 29 be a0 bf fa 63 93 3d c9 fb 4e 3e e1 08 ff be
       -1.2558032 0.071968034 0.20213236 -0.49811462
0001e0 e3 d8 ed 3c 61 02 26 3f b9 8b d6 be 06 74 f8 bb
       0.029034084 0.6484738 -0.41903475 -0.0075821904
0001f0 d0 01 d2 be 09 aa c6 bd 4f c3 a4 bb db d6 2a 3e
       -0.41017008 -0.097004004 -0.0050281654 0.16683523
000200 f3 55 86 be 32 d9 95 bb 74 b4 bf be dd 8b 92 be
       -0.2623745 -0.004573011 -0.37442362 -0.28622332
000210 cd 11 2b be b9 08 43 3d 3e 44 6a be 65 94 d9 be
       -0.16706009 0.04761574 -0.22877595 -0.4249603
000220 03 ca e1 3f 7c a6 cd bf e2 47 3e 3e 2d 5f 03 c0
       1.7639774 -1.6066432 0.18582109 -2.052684
000230 f8 37 6d be 03 93 91 be 26 b3 ec be ca f9 9e bf
       -0.23165882 -0.28432474 -0.4623043 -1.241998
000240 31 7d 70 be 93 71 3c bf 51 40 01 c0 94 1f d0 be
       -0.23485257 -0.736108 -2.0195506 -0.40649092
000250 56 5f 83 3c 48 ae 27 be
       0.01603667 -0.16375077

linears.0.bias f4 [10]
000000 93 ae 07 3d a9 a8 24 3d df 68 a9 bd 0c 9c c0 3c
       0.03312547 0.04019991 -0.08271956 0.023511909
000010 36 f9 eb bd 2b d9 2d 3d 91 af 73 3d 48 86 74 3c
       -0.115221426 0.042443436 0.059493605 0.014924593
000020 76 2b 2f 3d aa c7 df 3d
       0.042766057 0.10926755

out.weight f4 [2, 10]
000000 07 2f 1b bf 3b 86 8f bb c0 f0 36 3f ae b1 a5 bd
       -0.60618633 -0.004380015 0.71461105 -0.0809053
000010 a1 bf fe be c4 d5 89 bf 9d 1f 98 3f 4f 99 40 3f
       -0.49755576 -1.0768361 1.1884648 0.7523393
000020 e8 ae b9 3e 1b 38 7a 3f 2c 90 80 3f 0b aa d5 be
       0.36266255 0.9774186 1.0043998 -0.41731295
000030 a8 17 1d bf 29 50 b0 3d 4a 60 d7 3e d1 aa 76 3f
       -0.6136422 0.08609039 0.4206565 0.96354395
000040 b6 ff 9a bf 86 40 f2 be 75 66 4d be 44 ea 95 bf
       -1.2109287 -0.47314852 -0.20058616 -1.1712117

out.bias f4 [2]
000000 47 3f 13 be 2e 29 70 be
       -0.14379607 -0.23453209
